Model: "4-track_data_analysis_demo"
__________________________________________________________________________________________________
Layer (type)                    Output Shape         Param #     Connected to                     
==================================================================================================
input_2 (InputLayer)            [(None, 18, 204)]    0                                            
__________________________________________________________________________________________________
conv1d_12 (Conv1D)              (None, 18, 128)      78464       input_2[0][0]                    
__________________________________________________________________________________________________
conv1d_13 (Conv1D)              (None, 18, 128)      52352       input_2[0][0]                    
__________________________________________________________________________________________________
conv1d_14 (Conv1D)              (None, 18, 128)      104576      input_2[0][0]                    
__________________________________________________________________________________________________
batch_normalization_12 (BatchNo (None, 18, 128)      384         conv1d_12[0][0]                  
__________________________________________________________________________________________________
batch_normalization_13 (BatchNo (None, 18, 128)      384         conv1d_13[0][0]                  
__________________________________________________________________________________________________
batch_normalization_14 (BatchNo (None, 18, 128)      384         conv1d_14[0][0]                  
__________________________________________________________________________________________________
activation_12 (Activation)      (None, 18, 128)      0           batch_normalization_12[0][0]     
__________________________________________________________________________________________________
activation_13 (Activation)      (None, 18, 128)      0           batch_normalization_13[0][0]     
__________________________________________________________________________________________________
activation_14 (Activation)      (None, 18, 128)      0           batch_normalization_14[0][0]     
__________________________________________________________________________________________________
concatenate_4 (Concatenate)     (None, 18, 384)      0           activation_12[0][0]              
                                                                 activation_13[0][0]              
                                                                 activation_14[0][0]              
__________________________________________________________________________________________________
dropout_6 (Dropout)             (None, 18, 384)      0           concatenate_4[0][0]              
__________________________________________________________________________________________________
conv1d_15 (Conv1D)              (None, 18, 128)      147584      dropout_6[0][0]                  
__________________________________________________________________________________________________
conv1d_16 (Conv1D)              (None, 18, 128)      147584      dropout_6[0][0]                  
__________________________________________________________________________________________________
conv1d_17 (Conv1D)              (None, 18, 128)      147584      dropout_6[0][0]                  
__________________________________________________________________________________________________
batch_normalization_15 (BatchNo (None, 18, 128)      384         conv1d_15[0][0]                  
__________________________________________________________________________________________________
batch_normalization_16 (BatchNo (None, 18, 128)      384         conv1d_16[0][0]                  
__________________________________________________________________________________________________
batch_normalization_17 (BatchNo (None, 18, 128)      384         conv1d_17[0][0]                  
__________________________________________________________________________________________________
activation_15 (Activation)      (None, 18, 128)      0           batch_normalization_15[0][0]     
__________________________________________________________________________________________________
activation_16 (Activation)      (None, 18, 128)      0           batch_normalization_16[0][0]     
__________________________________________________________________________________________________
activation_17 (Activation)      (None, 18, 128)      0           batch_normalization_17[0][0]     
__________________________________________________________________________________________________
concatenate_5 (Concatenate)     (None, 18, 384)      0           activation_15[0][0]              
                                                                 activation_16[0][0]              
                                                                 activation_17[0][0]              
__________________________________________________________________________________________________
dropout_7 (Dropout)             (None, 18, 384)      0           concatenate_5[0][0]              
__________________________________________________________________________________________________
conv1d_18 (Conv1D)              (None, 18, 128)      147584      dropout_7[0][0]                  
__________________________________________________________________________________________________
conv1d_19 (Conv1D)              (None, 18, 128)      98432       dropout_7[0][0]                  
__________________________________________________________________________________________________
conv1d_20 (Conv1D)              (None, 18, 128)      196736      dropout_7[0][0]                  
__________________________________________________________________________________________________
batch_normalization_18 (BatchNo (None, 18, 128)      384         conv1d_18[0][0]                  
__________________________________________________________________________________________________
batch_normalization_19 (BatchNo (None, 18, 128)      384         conv1d_19[0][0]                  
__________________________________________________________________________________________________
batch_normalization_20 (BatchNo (None, 18, 128)      384         conv1d_20[0][0]                  
__________________________________________________________________________________________________
activation_18 (Activation)      (None, 18, 128)      0           batch_normalization_18[0][0]     
__________________________________________________________________________________________________
activation_19 (Activation)      (None, 18, 128)      0           batch_normalization_19[0][0]     
__________________________________________________________________________________________________
activation_20 (Activation)      (None, 18, 128)      0           batch_normalization_20[0][0]     
__________________________________________________________________________________________________
concatenate_6 (Concatenate)     (None, 18, 384)      0           activation_18[0][0]              
                                                                 activation_19[0][0]              
                                                                 activation_20[0][0]              
__________________________________________________________________________________________________
dropout_8 (Dropout)             (None, 18, 384)      0           concatenate_6[0][0]              
__________________________________________________________________________________________________
conv1d_21 (Conv1D)              (None, 18, 80)       92240       dropout_8[0][0]                  
__________________________________________________________________________________________________
conv1d_22 (Conv1D)              (None, 18, 80)       92240       dropout_8[0][0]                  
__________________________________________________________________________________________________
conv1d_23 (Conv1D)              (None, 18, 80)       92240       dropout_8[0][0]                  
__________________________________________________________________________________________________
batch_normalization_21 (BatchNo (None, 18, 80)       240         conv1d_21[0][0]                  
__________________________________________________________________________________________________
batch_normalization_22 (BatchNo (None, 18, 80)       240         conv1d_22[0][0]                  
__________________________________________________________________________________________________
batch_normalization_23 (BatchNo (None, 18, 80)       240         conv1d_23[0][0]                  
__________________________________________________________________________________________________
activation_21 (Activation)      (None, 18, 80)       0           batch_normalization_21[0][0]     
__________________________________________________________________________________________________
activation_22 (Activation)      (None, 18, 80)       0           batch_normalization_22[0][0]     
__________________________________________________________________________________________________
activation_23 (Activation)      (None, 18, 80)       0           batch_normalization_23[0][0]     
__________________________________________________________________________________________________
concatenate_7 (Concatenate)     (None, 18, 240)      0           activation_21[0][0]              
                                                                 activation_22[0][0]              
                                                                 activation_23[0][0]              
__________________________________________________________________________________________________
dropout_9 (Dropout)             (None, 18, 240)      0           concatenate_7[0][0]              
__________________________________________________________________________________________________
flatten_1 (Flatten)             (None, 4320)         0           dropout_9[0][0]                  
__________________________________________________________________________________________________
dense_3 (Dense)                 (None, 384)          1659264     flatten_1[0][0]                  
__________________________________________________________________________________________________
dropout_10 (Dropout)            (None, 384)          0           dense_3[0][0]                    
__________________________________________________________________________________________________
dense_4 (Dense)                 (None, 384)          147840      dropout_10[0][0]                 
__________________________________________________________________________________________________
dropout_11 (Dropout)            (None, 384)          0           dense_4[0][0]                    
__________________________________________________________________________________________________
dense_5 (Dense)                 (None, 1)            385         dropout_11[0][0]                 
==================================================================================================
Total params: 3,209,281
Trainable params: 3,206,497
Non-trainable params: 2,784
__________________________________________________________________________________________________
